…
I0805 12:42:51.079519  8884 net.cpp:296] The NetState phase (0) differed from the phase (1) specified by a rule in layer acc_test
I0805 12:42:51.080026  8884 net.cpp:53] Initializing net from parameters: 
name: "CaffeNet"
state {
  phase: TRAIN
  level: 0
  stage: ""
}
layer {
  name: "data"
  type: "ImageDataRegression"
  top: "data"
  top: "raw_label"
  include {
    phase: TRAIN
  }
  transform_param {
    mirror: false
  }
  data_param {
    prefetch: 32
  }
  image_data_regression_param {
    source: "well_placed.list"
    batch_size: 62
    shuffle: true
    new_height: 32
    new_width: 32
    is_color: false
    regression_num: 5
  }
}
layer {
  name: "raw_label_slice"
  type: "Slice"
  bottom: "raw_label"
  top: "label"
  top: "silence_label"
  include {
    phase: TRAIN
  }
  slice_param {
    slice_point: 1
    axis: 1
  }
}
layer {
  name: "label_silence"
  type: "Silence"
  bottom: "silence_label"
  include {
    phase: TRAIN
  }
}
layer {
  name: "conv1"
  type: "Convolution"
  bottom: "data"
  top: "conv1"
  convolution_param {
    num_output: 32
    bias_term: false
    kernel_size: 5
    stride: 2
    weight_filler {
      type: "msra"
    }
  }
}
layer {
  name: "bn1"
  type: "BN"
  bottom: "conv1"
  top: "scale1"
  param {
    lr_mult: 1.00001
    decay_mult: 0
  }
  param {
    lr_mult: 1.00001
    decay_mult: 0
  }
  bn_param {
    scale_filler {
      type: "constant"
      value: 1
    }
    shift_filler {
      type: "constant"
      value: 0.001
    }
  }
}
layer {
  name: "relu1"
  type: "ReLU"
  bottom: "scale1"
  top: "scale1"
}
layer {
  name: "conv2"
  type: "Convolution"
  bottom: "scale1"
  top: "conv2"
  convolution_param {
    num_output: 64
    bias_term: false
    pad: 1
    kernel_size: 3
    stride: 1
    weight_filler {
      type: "msra"
    }
  }
}
layer {
  name: "bn2"
  type: "BN"
  bottom: "conv2"
  top: "scale2"
  param {
    lr_mult: 1.00001
    decay_mult: 0
  }
  param {
    lr_mult: 1.00001
    decay_mult: 0
  }
  bn_param {
    scale_filler {
      type: "constant"
      value: 1
    }
    shift_filler {
      type: "constant"
      value: 0.001
    }
  }
}
layer {
  name: "relu2"
  type: "ReLU"
  bottom: "scale2"
  top: "scale2"
}
layer {
  name: "pool1"
  type: "Pooling"
  bottom: "scale2"
  top: "pool1"
  pooling_param {
    pool: MAX
    kernel_size: 2
    stride: 2
  }
}
layer {
  name: "conv3"
  type: "Convolution"
  bottom: "pool1"
  top: "conv3"
  convolution_param {
    num_output: 32
    bias_term: false
    pad: 0
    kernel_size: 1
    stride: 1
    weight_filler {
      type: "msra"
    }
  }
}
layer {
  name: "bn3"
  type: "BN"
  bottom: "conv3"
  top: "scale3"
  param {
    lr_mult: 1.00001
    decay_mult: 0
  }
  param {
    lr_mult: 1.00001
    decay_mult: 0
  }
  bn_param {
    scale_filler {
      type: "constant"
      value: 1
    }
    shift_filler {
      type: "constant"
      value: 0.001
    }
  }
}
layer {
  name: "relu3"
  type: "ReLU"
  bottom: "scale3"
  top: "scale3"
}
layer {
  name: "conv4"
  type: "Convolution"
  bottom: "scale3"
  top: "conv4"
  convolution_param {
    num_output: 64
    bias_term: false
    pad: 1
    kernel_size: 3
    stride: 1
    weight_filler {
      type: "msra"
    }
  }
}
layer {
  name: "bn4"
  type: "BN"
  bottom: "conv4"
  top: "scale4"
  param {
    lr_mult: 1.00001
    decay_mult: 0
  }
  param {
    lr_mult: 1.00001
    decay_mult: 0
  }
  bn_param {
    scale_filler {
      type: "constant"
      value: 1
    }
    shift_filler {
      type: "constant"
      value: 0.001
    }
  }
}
layer {
  name: "relu4"
  type: "ReLU"
  bottom: "scale4"
  top: "scale4"
}
layer {
  name: "conv5"
  type: "Convolution"
  bottom: "pool1"
  top: "conv5"
  convolution_param {
    num_output: 32
    bias_term: false
    pad: 0
    kernel_size: 1
    stride: 1
    weight_filler {
      type: "msra"
    }
  }
}
layer {
  name: "bn5"
  type: "BN"
  bottom: "conv5"
  top: "scale5"
  param {
    lr_mult: 1.00001
    decay_mult: 0
  }
  param {
    lr_mult: 1.00001
    decay_mult: 0
  }
  bn_param {
    scale_filler {
      type: "constant"
      value: 1
    }
    shift_filler {
      type: "constant"
      value: 0.001
    }
  }
}
layer {
  name: "relu5"
  type: "ReLU"
  bottom: "scale5"
  top: "scale5"
}
layer {
  name: "concat1"
  type: "Concat"
  bottom: "scale5"
  bottom: "scale4"
  top: "concat1"
}
layer {
  name: "conv6"
  type: "Convolution"
  bottom: "concat1"
  top: "conv6"
  convolution_param {
    num_output: 96
    bias_term: false
    pad: 1
    kernel_size: 3
    stride: 1
    weight_filler {
      type: "msra"
    }
  }
}
layer {
  name: "bn6"
  type: "BN"
  bottom: "conv6"
  top: "scale6"
  param {
    lr_mult: 1.00001
    decay_mult: 0
  }
  param {
    lr_mult: 1.00001
    decay_mult: 0
  }
  bn_param {
    scale_filler {
      type: "constant"
      value: 1
    }
    shift_filler {
      type: "constant"
      value: 0.001
    }
  }
}
layer {
  name: "relu6"
  type: "ReLU"
  bottom: "scale6"
  top: "scale6"
}
layer {
  name: "conv7"
  type: "Convolution"
  bottom: "scale6"
  top: "conv7"
  convolution_param {
    num_output: 48
    bias_term: false
    kernel_size: 1
    stride: 1
    weight_filler {
      type: "msra"
    }
  }
}
layer {
  name: "bn7"
  type: "BN"
  bottom: "conv7"
  top: "scale7"
  param {
    lr_mult: 1.00001
    decay_mult: 0
  }
  param {
    lr_mult: 1.00001
    decay_mult: 0
  }
  bn_param {
    scale_filler {
      type: "constant"
      value: 1
    }
    shift_filler {
      type: "constant"
      value: 0.001
    }
  }
}
layer {
  name: "relu7"
  type: "ReLU"
  bottom: "scale7"
  top: "scale7"
}
layer {
  name: "conv8"
  type: "Convolution"
  bottom: "scale7"
  top: "conv8"
  convolution_param {
    num_output: 96
    bias_term: false
    pad: 1
    kernel_size: 3
    stride: 1
    weight_filler {
      type: "msra"
    }
  }
}
layer {
  name: "bn8"
  type: "BN"
  bottom: "conv8"
  top: "scale8"
  param {
    lr_mult: 1.00001
    decay_mult: 0
  }
  param {
    lr_mult: 1.00001
    decay_mult: 0
  }
  bn_param {
    scale_filler {
      type: "constant"
      value: 1
    }
    shift_filler {
      type: "constant"
      value: 0.001
    }
  }
}
layer {
  name: "relu8"
  type: "ReLU"
  bottom: "scale8"
  top: "scale8"
}
layer {
  name: "conv9"
  type: "Convolution"
  bottom: "scale6"
  top: "conv9"
  convolution_param {
    num_output: 48
    bias_term: false
    kernel_size: 1
    stride: 1
    weight_filler {
      type: "msra"
    }
  }
}
layer {
  name: "bn9"
  type: "BN"
  bottom: "conv9"
  top: "scale9"
  param {
    lr_mult: 1.00001
    decay_mult: 0
  }
  param {
    lr_mult: 1.00001
    decay_mult: 0
  }
  bn_param {
    scale_filler {
      type: "constant"
      value: 1
    }
    shift_filler {
      type: "constant"
      value: 0.001
    }
  }
}
layer {
  name: "relu9"
  type: "ReLU"
  bottom: "scale9"
  top: "scale9"
}
layer {
  name: "concat2"
  type: "Concat"
  bottom: "scale9"
  bottom: "scale8"
  top: "pool3"
}
layer {
  name: "conv10"
  type: "Convolution"
  bottom: "pool3"
  top: "conv10"
  convolution_param {
    num_output: 128
    bias_term: false
    kernel_size: 3
    stride: 1
    weight_filler {
      type: "msra"
    }
  }
}
layer {
  name: "bn10"
  type: "BN"
  bottom: "conv10"
  top: "scale10"
  param {
    lr_mult: 1.00001
    decay_mult: 0
  }
  param {
    lr_mult: 1.00001
    decay_mult: 0
  }
  bn_param {
    scale_filler {
      type: "constant"
      value: 1
    }
    shift_filler {
      type: "constant"
      value: 0.001
    }
  }
}
layer {
  name: "relu10"
  type: "ReLU"
  bottom: "scale10"
  top: "scale10"
}
layer {
  name: "conv11"
  type: "Convolution"
  bottom: "scale10"
  top: "conv11"
  convolution_param {
    num_output: 256
    kernel_size: 3
    stride: 1
    weight_filler {
      type: "msra"
    }
  }
}
layer {
  name: "conv11_bn"
  type: "BN"
  bottom: "conv11"
  top: "conv11_bn"
  param {
    lr_mult: 1.00001
    decay_mult: 0
  }
  param {
    lr_mult: 1.00001
    decay_mult: 0
  }
  bn_param {
    scale_filler {
      type: "constant"
      value: 1
    }
    shift_filler {
      type: "constant"
      value: 0.001
    }
  }
}
layer {
  name: "pool4"
  type: "Pooling"
  bottom: "conv11_bn"
  top: "pool4"
  pooling_param {
    pool: MAX
    kernel_size: 3
    stride: 3
  }
}
layer {
  name: "fc5"
  type: "InnerProduct"
  bottom: "pool4"
  top: "fc5"
  param {
    lr_mult: 1
    decay_mult: 1
  }
  param {
    lr_mult: 2
    decay_mult: 0
  }
  inner_product_param {
    num_output: 2048
    weight_filler {
      type: "xavier"
    }
    bias_filler {
      type: "constant"
      value: 0
    }
  }
}
layer {
  name: "fc6"
  type: "InnerProduct"
  bottom: "fc5"
  top: "fc6"
  param {
    lr_mult: 1
    decay_mult: 1
  }
  param {
    lr_mult: 2
    decay_mult: 0
  }
  inner_product_param {
    num_output: 62
    weight_filler {
      type: "xavier"
    }
    bias_filler {
      type: "constant"
      value: 0
    }
  }
}
layer {
  name: "softmax_loss"
  type: "SoftmaxWithLoss"
  bottom: "fc6"
  bottom: "label"
  top: "softmax_loss"
  include {
    phase: TRAIN
  }
}
layer {
  name: "acc_train"
  type: "Accuracy"
  bottom: "fc6"
  bottom: "label"
  top: "acc_train"
  include {
    phase: TRAIN
  }
}
I0805 12:42:51.080462  8884 layer_factory.hpp:77] Creating layer data
I0805 12:42:51.085047  8884 net.cpp:86] Creating Layer data
I0805 12:42:51.085088  8884 net.cpp:382] data -> data
I0805 12:42:51.085135  8884 net.cpp:382] data -> raw_label
I0805 12:42:51.085170  8884 image_data_regression.hpp:44] Opening file well_placed.list
I0805 12:42:54.402217  8884 image_data_regression.cpp:52] Shuffling data
I0805 12:42:54.750668  8884 image_data_regression.cpp:62] A total of 3067264 images.
I0805 12:42:54.752272  8884 image_data_regression.cpp:93] output data size: 62,1,32,32
I0805 12:42:54.752311  8884 image_data_regression.cpp:101] top[1]->num_axes: 2
I0805 12:42:54.763540  8884 net.cpp:124] Setting up data
I0805 12:42:54.763577  8884 net.cpp:131] Top shape: 62 1 32 32 (63488)
I0805 12:42:54.763583  8884 net.cpp:131] Top shape: 62 5 (310)
I0805 12:42:54.763586  8884 net.cpp:139] Memory required for data: 255192
I0805 12:42:54.763597  8884 layer_factory.hpp:77] Creating layer raw_label_slice
I0805 12:42:54.763659  8884 net.cpp:86] Creating Layer raw_label_slice
I0805 12:42:54.763669  8884 net.cpp:408] raw_label_slice <- raw_label
I0805 12:42:54.763684  8884 net.cpp:382] raw_label_slice -> label
I0805 12:42:54.763701  8884 net.cpp:382] raw_label_slice -> silence_label
I0805 12:42:54.763823  8884 net.cpp:124] Setting up raw_label_slice
I0805 12:42:54.763833  8884 net.cpp:131] Top shape: 62 1 (62)
I0805 12:42:54.763837  8884 net.cpp:131] Top shape: 62 4 (248)
I0805 12:42:54.763840  8884 net.cpp:139] Memory required for data: 256432
I0805 12:42:54.763844  8884 layer_factory.hpp:77] Creating layer label_raw_label_slice_0_split
I0805 12:42:54.763866  8884 net.cpp:86] Creating Layer label_raw_label_slice_0_split
I0805 12:42:54.763872  8884 net.cpp:408] label_raw_label_slice_0_split <- label
I0805 12:42:54.763877  8884 net.cpp:382] label_raw_label_slice_0_split -> label_raw_label_slice_0_split_0
I0805 12:42:54.763885  8884 net.cpp:382] label_raw_label_slice_0_split -> label_raw_label_slice_0_split_1
I0805 12:42:54.763953  8884 net.cpp:124] Setting up label_raw_label_slice_0_split
I0805 12:42:54.763962  8884 net.cpp:131] Top shape: 62 1 (62)
I0805 12:42:54.763967  8884 net.cpp:131] Top shape: 62 1 (62)
I0805 12:42:54.763969  8884 net.cpp:139] Memory required for data: 256928
I0805 12:42:54.763972  8884 layer_factory.hpp:77] Creating layer label_silence
I0805 12:42:54.763998  8884 net.cpp:86] Creating Layer label_silence
I0805 12:42:54.764001  8884 net.cpp:408] label_silence <- silence_label
I0805 12:42:54.764006  8884 net.cpp:124] Setting up label_silence
I0805 12:42:54.764009  8884 net.cpp:139] Memory required for data: 256928
I0805 12:42:54.764014  8884 layer_factory.hpp:77] Creating layer conv1
I0805 12:42:54.764036  8884 net.cpp:86] Creating Layer conv1
I0805 12:42:54.764041  8884 net.cpp:408] conv1 <- data
I0805 12:42:54.764046  8884 net.cpp:382] conv1 -> conv1
I0805 12:42:55.558553  8884 net.cpp:124] Setting up conv1
I0805 12:42:55.558590  8884 net.cpp:131] Top shape: 62 32 14 14 (388864)
I0805 12:42:55.558598  8884 net.cpp:139] Memory required for data: 1812384
I0805 12:42:55.558619  8884 layer_factory.hpp:77] Creating layer bn1
I0805 12:42:55.558641  8884 net.cpp:86] Creating Layer bn1
I0805 12:42:55.558650  8884 net.cpp:408] bn1 <- conv1
I0805 12:42:55.558657  8884 net.cpp:382] bn1 -> scale1
I0805 12:42:55.558995  8884 net.cpp:124] Setting up bn1
I0805 12:42:55.559007  8884 net.cpp:131] Top shape: 62 32 14 14 (388864)
I0805 12:42:55.559011  8884 net.cpp:139] Memory required for data: 3367840
I0805 12:42:55.559026  8884 layer_factory.hpp:77] Creating layer relu1
I0805 12:42:55.559037  8884 net.cpp:86] Creating Layer relu1
I0805 12:42:55.559042  8884 net.cpp:408] relu1 <- scale1
I0805 12:42:55.559052  8884 net.cpp:369] relu1 -> scale1 (in-place)
I0805 12:42:55.559561  8884 net.cpp:124] Setting up relu1
I0805 12:42:55.559579  8884 net.cpp:131] Top shape: 62 32 14 14 (388864)
I0805 12:42:55.559584  8884 net.cpp:139] Memory required for data: 4923296
I0805 12:42:55.559589  8884 layer_factory.hpp:77] Creating layer conv2
I0805 12:42:55.559602  8884 net.cpp:86] Creating Layer conv2
I0805 12:42:55.559607  8884 net.cpp:408] conv2 <- scale1
I0805 12:42:55.559614  8884 net.cpp:382] conv2 -> conv2
I0805 12:42:55.562783  8884 net.cpp:124] Setting up conv2
I0805 12:42:55.562806  8884 net.cpp:131] Top shape: 62 64 14 14 (777728)
I0805 12:42:55.562811  8884 net.cpp:139] Memory required for data: 8034208
I0805 12:42:55.562819  8884 layer_factory.hpp:77] Creating layer bn2
I0805 12:42:55.562834  8884 net.cpp:86] Creating Layer bn2
I0805 12:42:55.562839  8884 net.cpp:408] bn2 <- conv2
I0805 12:42:55.562847  8884 net.cpp:382] bn2 -> scale2
I0805 12:42:55.563156  8884 net.cpp:124] Setting up bn2
I0805 12:42:55.563169  8884 net.cpp:131] Top shape: 62 64 14 14 (777728)
I0805 12:42:55.563172  8884 net.cpp:139] Memory required for data: 11145120
I0805 12:42:55.563184  8884 layer_factory.hpp:77] Creating layer relu2
I0805 12:42:55.563191  8884 net.cpp:86] Creating Layer relu2
I0805 12:42:55.563206  8884 net.cpp:408] relu2 <- scale2
I0805 12:42:55.563217  8884 net.cpp:369] relu2 -> scale2 (in-place)
I0805 12:42:55.563485  8884 net.cpp:124] Setting up relu2
I0805 12:42:55.563500  8884 net.cpp:131] Top shape: 62 64 14 14 (777728)
I0805 12:42:55.563504  8884 net.cpp:139] Memory required for data: 14256032
I0805 12:42:55.563509  8884 layer_factory.hpp:77] Creating layer pool1
I0805 12:42:55.563519  8884 net.cpp:86] Creating Layer pool1
I0805 12:42:55.563524  8884 net.cpp:408] pool1 <- scale2
I0805 12:42:55.563530  8884 net.cpp:382] pool1 -> pool1
I0805 12:42:55.563596  8884 net.cpp:124] Setting up pool1
I0805 12:42:55.563607  8884 net.cpp:131] Top shape: 62 64 7 7 (194432)
I0805 12:42:55.563611  8884 net.cpp:139] Memory required for data: 15033760
I0805 12:42:55.563618  8884 layer_factory.hpp:77] Creating layer pool1_pool1_0_split
I0805 12:42:55.563625  8884 net.cpp:86] Creating Layer pool1_pool1_0_split
I0805 12:42:55.563630  8884 net.cpp:408] pool1_pool1_0_split <- pool1
I0805 12:42:55.563637  8884 net.cpp:382] pool1_pool1_0_split -> pool1_pool1_0_split_0
I0805 12:42:55.563643  8884 net.cpp:382] pool1_pool1_0_split -> pool1_pool1_0_split_1
I0805 12:42:55.563686  8884 net.cpp:124] Setting up pool1_pool1_0_split
I0805 12:42:55.563695  8884 net.cpp:131] Top shape: 62 64 7 7 (194432)
I0805 12:42:55.563700  8884 net.cpp:131] Top shape: 62 64 7 7 (194432)
I0805 12:42:55.563722  8884 net.cpp:139] Memory required for data: 16589216
I0805 12:42:55.563727  8884 layer_factory.hpp:77] Creating layer conv3
I0805 12:42:55.563745  8884 net.cpp:86] Creating Layer conv3
I0805 12:42:55.563751  8884 net.cpp:408] conv3 <- pool1_pool1_0_split_0
I0805 12:42:55.563758  8884 net.cpp:382] conv3 -> conv3
I0805 12:42:55.566032  8884 net.cpp:124] Setting up conv3
I0805 12:42:55.566052  8884 net.cpp:131] Top shape: 62 32 7 7 (97216)
I0805 12:42:55.566058  8884 net.cpp:139] Memory required for data: 16978080
I0805 12:42:55.566066  8884 layer_factory.hpp:77] Creating layer bn3
I0805 12:42:55.566074  8884 net.cpp:86] Creating Layer bn3
I0805 12:42:55.566079  8884 net.cpp:408] bn3 <- conv3
I0805 12:42:55.566087  8884 net.cpp:382] bn3 -> scale3
I0805 12:42:55.566406  8884 net.cpp:124] Setting up bn3
I0805 12:42:55.566418  8884 net.cpp:131] Top shape: 62 32 7 7 (97216)
I0805 12:42:55.566422  8884 net.cpp:139] Memory required for data: 17366944
I0805 12:42:55.566432  8884 layer_factory.hpp:77] Creating layer relu3
I0805 12:42:55.566438  8884 net.cpp:86] Creating Layer relu3
I0805 12:42:55.566443  8884 net.cpp:408] relu3 <- scale3
I0805 12:42:55.566449  8884 net.cpp:369] relu3 -> scale3 (in-place)
I0805 12:42:55.567028  8884 net.cpp:124] Setting up relu3
I0805 12:42:55.567046  8884 net.cpp:131] Top shape: 62 32 7 7 (97216)
I0805 12:42:55.567050  8884 net.cpp:139] Memory required for data: 17755808
I0805 12:42:55.567057  8884 layer_factory.hpp:77] Creating layer conv4
I0805 12:42:55.567072  8884 net.cpp:86] Creating Layer conv4
I0805 12:42:55.567077  8884 net.cpp:408] conv4 <- scale3
I0805 12:42:55.567086  8884 net.cpp:382] conv4 -> conv4
I0805 12:42:55.569444  8884 net.cpp:124] Setting up conv4
I0805 12:42:55.569465  8884 net.cpp:131] Top shape: 62 64 7 7 (194432)
I0805 12:42:55.569470  8884 net.cpp:139] Memory required for data: 18533536
I0805 12:42:55.569478  8884 layer_factory.hpp:77] Creating layer bn4
I0805 12:42:55.569491  8884 net.cpp:86] Creating Layer bn4
I0805 12:42:55.569496  8884 net.cpp:408] bn4 <- conv4
I0805 12:42:55.569504  8884 net.cpp:382] bn4 -> scale4
I0805 12:42:55.569849  8884 net.cpp:124] Setting up bn4
I0805 12:42:55.569861  8884 net.cpp:131] Top shape: 62 64 7 7 (194432)
I0805 12:42:55.569865  8884 net.cpp:139] Memory required for data: 19311264
I0805 12:42:55.569876  8884 layer_factory.hpp:77] Creating layer relu4
I0805 12:42:55.569885  8884 net.cpp:86] Creating Layer relu4
I0805 12:42:55.569890  8884 net.cpp:408] relu4 <- scale4
I0805 12:42:55.569896  8884 net.cpp:369] relu4 -> scale4 (in-place)
I0805 12:42:55.570196  8884 net.cpp:124] Setting up relu4
I0805 12:42:55.570210  8884 net.cpp:131] Top shape: 62 64 7 7 (194432)
I0805 12:42:55.570214  8884 net.cpp:139] Memory required for data: 20088992
I0805 12:42:55.570219  8884 layer_factory.hpp:77] Creating layer conv5
I0805 12:42:55.570232  8884 net.cpp:86] Creating Layer conv5
I0805 12:42:55.570237  8884 net.cpp:408] conv5 <- pool1_pool1_0_split_1
I0805 12:42:55.570246  8884 net.cpp:382] conv5 -> conv5
I0805 12:42:55.572065  8884 net.cpp:124] Setting up conv5
I0805 12:42:55.572084  8884 net.cpp:131] Top shape: 62 32 7 7 (97216)
I0805 12:42:55.572089  8884 net.cpp:139] Memory required for data: 20477856
I0805 12:42:55.572098  8884 layer_factory.hpp:77] Creating layer bn5
I0805 12:42:55.572108  8884 net.cpp:86] Creating Layer bn5
I0805 12:42:55.572113  8884 net.cpp:408] bn5 <- conv5
I0805 12:42:55.572121  8884 net.cpp:382] bn5 -> scale5
I0805 12:42:55.572454  8884 net.cpp:124] Setting up bn5
I0805 12:42:55.572466  8884 net.cpp:131] Top shape: 62 32 7 7 (97216)
I0805 12:42:55.572470  8884 net.cpp:139] Memory required for data: 20866720
I0805 12:42:55.572479  8884 layer_factory.hpp:77] Creating layer relu5
I0805 12:42:55.572487  8884 net.cpp:86] Creating Layer relu5
I0805 12:42:55.572491  8884 net.cpp:408] relu5 <- scale5
I0805 12:42:55.572497  8884 net.cpp:369] relu5 -> scale5 (in-place)
I0805 12:42:55.573135  8884 net.cpp:124] Setting up relu5
I0805 12:42:55.573158  8884 net.cpp:131] Top shape: 62 32 7 7 (97216)
I0805 12:42:55.573177  8884 net.cpp:139] Memory required for data: 21255584
I0805 12:42:55.573182  8884 layer_factory.hpp:77] Creating layer concat1
I0805 12:42:55.573197  8884 net.cpp:86] Creating Layer concat1
I0805 12:42:55.573202  8884 net.cpp:408] concat1 <- scale5
I0805 12:42:55.573207  8884 net.cpp:408] concat1 <- scale4
I0805 12:42:55.573216  8884 net.cpp:382] concat1 -> concat1
I0805 12:42:55.573257  8884 net.cpp:124] Setting up concat1
I0805 12:42:55.573267  8884 net.cpp:131] Top shape: 62 96 7 7 (291648)
I0805 12:42:55.573271  8884 net.cpp:139] Memory required for data: 22422176
I0805 12:42:55.573276  8884 layer_factory.hpp:77] Creating layer conv6
I0805 12:42:55.573288  8884 net.cpp:86] Creating Layer conv6
I0805 12:42:55.573295  8884 net.cpp:408] conv6 <- concat1
I0805 12:42:55.573303  8884 net.cpp:382] conv6 -> conv6
I0805 12:42:55.578809  8884 net.cpp:124] Setting up conv6
I0805 12:42:55.578828  8884 net.cpp:131] Top shape: 62 96 7 7 (291648)
I0805 12:42:55.578833  8884 net.cpp:139] Memory required for data: 23588768
I0805 12:42:55.578841  8884 layer_factory.hpp:77] Creating layer bn6
I0805 12:42:55.578850  8884 net.cpp:86] Creating Layer bn6
I0805 12:42:55.578855  8884 net.cpp:408] bn6 <- conv6
I0805 12:42:55.578863  8884 net.cpp:382] bn6 -> scale6
I0805 12:42:55.579197  8884 net.cpp:124] Setting up bn6
I0805 12:42:55.579208  8884 net.cpp:131] Top shape: 62 96 7 7 (291648)
I0805 12:42:55.579212  8884 net.cpp:139] Memory required for data: 24755360
I0805 12:42:55.579221  8884 layer_factory.hpp:77] Creating layer relu6
I0805 12:42:55.579227  8884 net.cpp:86] Creating Layer relu6
I0805 12:42:55.579231  8884 net.cpp:408] relu6 <- scale6
I0805 12:42:55.579238  8884 net.cpp:369] relu6 -> scale6 (in-place)
I0805 12:42:55.579800  8884 net.cpp:124] Setting up relu6
I0805 12:42:55.579818  8884 net.cpp:131] Top shape: 62 96 7 7 (291648)
I0805 12:42:55.579823  8884 net.cpp:139] Memory required for data: 25921952
I0805 12:42:55.579826  8884 layer_factory.hpp:77] Creating layer scale6_relu6_0_split
I0805 12:42:55.579833  8884 net.cpp:86] Creating Layer scale6_relu6_0_split
I0805 12:42:55.579840  8884 net.cpp:408] scale6_relu6_0_split <- scale6
I0805 12:42:55.579846  8884 net.cpp:382] scale6_relu6_0_split -> scale6_relu6_0_split_0
I0805 12:42:55.579854  8884 net.cpp:382] scale6_relu6_0_split -> scale6_relu6_0_split_1
I0805 12:42:55.579916  8884 net.cpp:124] Setting up scale6_relu6_0_split
I0805 12:42:55.579924  8884 net.cpp:131] Top shape: 62 96 7 7 (291648)
I0805 12:42:55.579931  8884 net.cpp:131] Top shape: 62 96 7 7 (291648)
I0805 12:42:55.579933  8884 net.cpp:139] Memory required for data: 28255136
I0805 12:42:55.579937  8884 layer_factory.hpp:77] Creating layer conv7
I0805 12:42:55.579951  8884 net.cpp:86] Creating Layer conv7
I0805 12:42:55.579957  8884 net.cpp:408] conv7 <- scale6_relu6_0_split_0
I0805 12:42:55.579963  8884 net.cpp:382] conv7 -> conv7
I0805 12:42:55.582518  8884 net.cpp:124] Setting up conv7
I0805 12:42:55.582538  8884 net.cpp:131] Top shape: 62 48 7 7 (145824)
I0805 12:42:55.582543  8884 net.cpp:139] Memory required for data: 28838432
I0805 12:42:55.582551  8884 layer_factory.hpp:77] Creating layer bn7
I0805 12:42:55.582561  8884 net.cpp:86] Creating Layer bn7
I0805 12:42:55.582566  8884 net.cpp:408] bn7 <- conv7
I0805 12:42:55.582576  8884 net.cpp:382] bn7 -> scale7
I0805 12:42:55.582922  8884 net.cpp:124] Setting up bn7
I0805 12:42:55.582934  8884 net.cpp:131] Top shape: 62 48 7 7 (145824)
I0805 12:42:55.582938  8884 net.cpp:139] Memory required for data: 29421728
I0805 12:42:55.582952  8884 layer_factory.hpp:77] Creating layer relu7
I0805 12:42:55.582960  8884 net.cpp:86] Creating Layer relu7
I0805 12:42:55.582965  8884 net.cpp:408] relu7 <- scale7
I0805 12:42:55.582970  8884 net.cpp:369] relu7 -> scale7 (in-place)
I0805 12:42:55.583261  8884 net.cpp:124] Setting up relu7
I0805 12:42:55.583274  8884 net.cpp:131] Top shape: 62 48 7 7 (145824)
I0805 12:42:55.583278  8884 net.cpp:139] Memory required for data: 30005024
I0805 12:42:55.583282  8884 layer_factory.hpp:77] Creating layer conv8
I0805 12:42:55.583308  8884 net.cpp:86] Creating Layer conv8
I0805 12:42:55.583314  8884 net.cpp:408] conv8 <- scale7
I0805 12:42:55.583320  8884 net.cpp:382] conv8 -> conv8
I0805 12:42:55.586731  8884 net.cpp:124] Setting up conv8
I0805 12:42:55.586751  8884 net.cpp:131] Top shape: 62 96 7 7 (291648)
I0805 12:42:55.586756  8884 net.cpp:139] Memory required for data: 31171616
I0805 12:42:55.586766  8884 layer_factory.hpp:77] Creating layer bn8
I0805 12:42:55.586777  8884 net.cpp:86] Creating Layer bn8
I0805 12:42:55.586782  8884 net.cpp:408] bn8 <- conv8
I0805 12:42:55.586788  8884 net.cpp:382] bn8 -> scale8
I0805 12:42:55.587133  8884 net.cpp:124] Setting up bn8
I0805 12:42:55.587144  8884 net.cpp:131] Top shape: 62 96 7 7 (291648)
I0805 12:42:55.587148  8884 net.cpp:139] Memory required for data: 32338208
I0805 12:42:55.587157  8884 layer_factory.hpp:77] Creating layer relu8
I0805 12:42:55.587163  8884 net.cpp:86] Creating Layer relu8
I0805 12:42:55.587167  8884 net.cpp:408] relu8 <- scale8
I0805 12:42:55.587175  8884 net.cpp:369] relu8 -> scale8 (in-place)
I0805 12:42:55.587684  8884 net.cpp:124] Setting up relu8
I0805 12:42:55.587702  8884 net.cpp:131] Top shape: 62 96 7 7 (291648)
I0805 12:42:55.587707  8884 net.cpp:139] Memory required for data: 33504800
I0805 12:42:55.587710  8884 layer_factory.hpp:77] Creating layer conv9
I0805 12:42:55.587725  8884 net.cpp:86] Creating Layer conv9
I0805 12:42:55.587730  8884 net.cpp:408] conv9 <- scale6_relu6_0_split_1
I0805 12:42:55.587739  8884 net.cpp:382] conv9 -> conv9
I0805 12:42:55.589465  8884 net.cpp:124] Setting up conv9
I0805 12:42:55.589495  8884 net.cpp:131] Top shape: 62 48 7 7 (145824)
I0805 12:42:55.589501  8884 net.cpp:139] Memory required for data: 34088096
I0805 12:42:55.589509  8884 layer_factory.hpp:77] Creating layer bn9
I0805 12:42:55.589517  8884 net.cpp:86] Creating Layer bn9
I0805 12:42:55.589521  8884 net.cpp:408] bn9 <- conv9
I0805 12:42:55.589530  8884 net.cpp:382] bn9 -> scale9
I0805 12:42:55.589872  8884 net.cpp:124] Setting up bn9
I0805 12:42:55.589884  8884 net.cpp:131] Top shape: 62 48 7 7 (145824)
I0805 12:42:55.589887  8884 net.cpp:139] Memory required for data: 34671392
I0805 12:42:55.589897  8884 layer_factory.hpp:77] Creating layer relu9
I0805 12:42:55.589906  8884 net.cpp:86] Creating Layer relu9
I0805 12:42:55.589910  8884 net.cpp:408] relu9 <- scale9
I0805 12:42:55.589917  8884 net.cpp:369] relu9 -> scale9 (in-place)
I0805 12:42:55.590206  8884 net.cpp:124] Setting up relu9
I0805 12:42:55.590219  8884 net.cpp:131] Top shape: 62 48 7 7 (145824)
I0805 12:42:55.590224  8884 net.cpp:139] Memory required for data: 35254688
I0805 12:42:55.590227  8884 layer_factory.hpp:77] Creating layer concat2
I0805 12:42:55.590235  8884 net.cpp:86] Creating Layer concat2
I0805 12:42:55.590240  8884 net.cpp:408] concat2 <- scale9
I0805 12:42:55.590247  8884 net.cpp:408] concat2 <- scale8
I0805 12:42:55.590253  8884 net.cpp:382] concat2 -> pool3
I0805 12:42:55.590296  8884 net.cpp:124] Setting up concat2
I0805 12:42:55.590306  8884 net.cpp:131] Top shape: 62 144 7 7 (437472)
I0805 12:42:55.590309  8884 net.cpp:139] Memory required for data: 37004576
I0805 12:42:55.590313  8884 layer_factory.hpp:77] Creating layer conv10
I0805 12:42:55.590324  8884 net.cpp:86] Creating Layer conv10
I0805 12:42:55.590329  8884 net.cpp:408] conv10 <- pool3
I0805 12:42:55.590335  8884 net.cpp:382] conv10 -> conv10
I0805 12:42:55.597980  8884 net.cpp:124] Setting up conv10
I0805 12:42:55.598001  8884 net.cpp:131] Top shape: 62 128 5 5 (198400)
I0805 12:42:55.598006  8884 net.cpp:139] Memory required for data: 37798176
I0805 12:42:55.598011  8884 layer_factory.hpp:77] Creating layer bn10
I0805 12:42:55.598026  8884 net.cpp:86] Creating Layer bn10
I0805 12:42:55.598031  8884 net.cpp:408] bn10 <- conv10
I0805 12:42:55.598039  8884 net.cpp:382] bn10 -> scale10
I0805 12:42:55.598373  8884 net.cpp:124] Setting up bn10
I0805 12:42:55.598386  8884 net.cpp:131] Top shape: 62 128 5 5 (198400)
I0805 12:42:55.598388  8884 net.cpp:139] Memory required for data: 38591776
I0805 12:42:55.598397  8884 layer_factory.hpp:77] Creating layer relu10
I0805 12:42:55.598421  8884 net.cpp:86] Creating Layer relu10
I0805 12:42:55.598426  8884 net.cpp:408] relu10 <- scale10
I0805 12:42:55.598431  8884 net.cpp:369] relu10 -> scale10 (in-place)
I0805 12:42:55.598927  8884 net.cpp:124] Setting up relu10
I0805 12:42:55.598944  8884 net.cpp:131] Top shape: 62 128 5 5 (198400)
I0805 12:42:55.598949  8884 net.cpp:139] Memory required for data: 39385376
I0805 12:42:55.598953  8884 layer_factory.hpp:77] Creating layer conv11
I0805 12:42:55.598969  8884 net.cpp:86] Creating Layer conv11
I0805 12:42:55.598975  8884 net.cpp:408] conv11 <- scale10
I0805 12:42:55.598983  8884 net.cpp:382] conv11 -> conv11
I0805 12:42:55.611959  8884 net.cpp:124] Setting up conv11
I0805 12:42:55.611980  8884 net.cpp:131] Top shape: 62 256 3 3 (142848)
I0805 12:42:55.611985  8884 net.cpp:139] Memory required for data: 39956768
I0805 12:42:55.611994  8884 layer_factory.hpp:77] Creating layer conv11_bn
I0805 12:42:55.612006  8884 net.cpp:86] Creating Layer conv11_bn
I0805 12:42:55.612011  8884 net.cpp:408] conv11_bn <- conv11
I0805 12:42:55.612017  8884 net.cpp:382] conv11_bn -> conv11_bn
I0805 12:42:55.612332  8884 net.cpp:124] Setting up conv11_bn
I0805 12:42:55.612344  8884 net.cpp:131] Top shape: 62 256 3 3 (142848)
I0805 12:42:55.612347  8884 net.cpp:139] Memory required for data: 40528160
I0805 12:42:55.612355  8884 layer_factory.hpp:77] Creating layer pool4
I0805 12:42:55.612365  8884 net.cpp:86] Creating Layer pool4
I0805 12:42:55.612370  8884 net.cpp:408] pool4 <- conv11_bn
I0805 12:42:55.612376  8884 net.cpp:382] pool4 -> pool4
I0805 12:42:55.612433  8884 net.cpp:124] Setting up pool4
I0805 12:42:55.612443  8884 net.cpp:131] Top shape: 62 256 1 1 (15872)
I0805 12:42:55.612447  8884 net.cpp:139] Memory required for data: 40591648
I0805 12:42:55.612452  8884 layer_factory.hpp:77] Creating layer fc5
I0805 12:42:55.612462  8884 net.cpp:86] Creating Layer fc5
I0805 12:42:55.612468  8884 net.cpp:408] fc5 <- pool4
I0805 12:42:55.612474  8884 net.cpp:382] fc5 -> fc5
I0805 12:42:55.617914  8884 net.cpp:124] Setting up fc5
I0805 12:42:55.617933  8884 net.cpp:131] Top shape: 62 2048 (126976)
I0805 12:42:55.617936  8884 net.cpp:139] Memory required for data: 41099552
I0805 12:42:55.617944  8884 layer_factory.hpp:77] Creating layer fc6
I0805 12:42:55.617955  8884 net.cpp:86] Creating Layer fc6
I0805 12:42:55.617960  8884 net.cpp:408] fc6 <- fc5
I0805 12:42:55.617966  8884 net.cpp:382] fc6 -> fc6
I0805 12:42:55.619838  8884 net.cpp:124] Setting up fc6
I0805 12:42:55.619856  8884 net.cpp:131] Top shape: 62 62 (3844)
I0805 12:42:55.619861  8884 net.cpp:139] Memory required for data: 41114928
I0805 12:42:55.619868  8884 layer_factory.hpp:77] Creating layer fc6_fc6_0_split
I0805 12:42:55.619876  8884 net.cpp:86] Creating Layer fc6_fc6_0_split
I0805 12:42:55.619880  8884 net.cpp:408] fc6_fc6_0_split <- fc6
I0805 12:42:55.619886  8884 net.cpp:382] fc6_fc6_0_split -> fc6_fc6_0_split_0
I0805 12:42:55.619894  8884 net.cpp:382] fc6_fc6_0_split -> fc6_fc6_0_split_1
I0805 12:42:55.619947  8884 net.cpp:124] Setting up fc6_fc6_0_split
I0805 12:42:55.619958  8884 net.cpp:131] Top shape: 62 62 (3844)
I0805 12:42:55.619963  8884 net.cpp:131] Top shape: 62 62 (3844)
I0805 12:42:55.619966  8884 net.cpp:139] Memory required for data: 41145680
I0805 12:42:55.619971  8884 layer_factory.hpp:77] Creating layer softmax_loss
I0805 12:42:55.619978  8884 net.cpp:86] Creating Layer softmax_loss
I0805 12:42:55.619984  8884 net.cpp:408] softmax_loss <- fc6_fc6_0_split_0
I0805 12:42:55.619990  8884 net.cpp:408] softmax_loss <- label_raw_label_slice_0_split_0
I0805 12:42:55.619995  8884 net.cpp:382] softmax_loss -> softmax_loss
…
I0805 12:42:55.628278  8884 net.cpp:296] The NetState phase (1) differed from the phase (0) specified by a rule in layer softmax_loss
I0805 12:42:55.628285  8884 net.cpp:296] The NetState phase (1) differed from the phase (0) specified by a rule in layer acc_train
I0805 12:42:55.628558  8884 net.cpp:53] Initializing net from parameters: 
name: "CaffeNet"
state {
  phase: TEST
}
layer {
  name: "data"
  type: "ImageData"
  top: "data"
  top: "label"
  include {
    phase: TEST
  }
  transform_param {
    mirror: false
  }
  image_data_param {
    source: "180709_alnum_test.list"
    batch_size: 12
    shuffle: true
    new_height: 32
    new_width: 32
    is_color: false
  }
}
layer {
  name: "conv1"
  type: "Convolution"
  bottom: "data"
  top: "conv1"
  convolution_param {
    num_output: 32
    bias_term: false
    kernel_size: 5
    stride: 2
    weight_filler {
      type: "msra"
    }
  }
}
layer {
  name: "bn1"
  type: "BN"
  bottom: "conv1"
  top: "scale1"
  param {
    lr_mult: 1.00001
    decay_mult: 0
  }
  param {
    lr_mult: 1.00001
    decay_mult: 0
  }
  bn_param {
    scale_filler {
      type: "constant"
      value: 1
    }
    shift_filler {
      type: "constant"
      value: 0.001
    }
  }
}
layer {
  name: "relu1"
  type: "ReLU"
  bottom: "scale1"
  top: "scale1"
}
layer {
  name: "conv2"
  type: "Convolution"
  bottom: "scale1"
  top: "conv2"
  convolution_param {
    num_output: 64
    bias_term: false
    pad: 1
    kernel_size: 3
    stride: 1
    weight_filler {
      type: "msra"
    }
  }
}
layer {
  name: "bn2"
  type: "BN"
  bottom: "conv2"
  top: "scale2"
  param {
    lr_mult: 1.00001
    decay_mult: 0
  }
  param {
    lr_mult: 1.00001
    decay_mult: 0
  }
  bn_param {
    scale_filler {
      type: "constant"
      value: 1
    }
    shift_filler {
      type: "constant"
      value: 0.001
    }
  }
}
layer {
  name: "relu2"
  type: "ReLU"
  bottom: "scale2"
  top: "scale2"
}
layer {
  name: "pool1"
  type: "Pooling"
  bottom: "scale2"
  top: "pool1"
  pooling_param {
    pool: MAX
    kernel_size: 2
    stride: 2
  }
}
layer {
  name: "conv3"
  type: "Convolution"
  bottom: "pool1"
  top: "conv3"
  convolution_param {
    num_output: 32
    bias_term: false
    pad: 0
    kernel_size: 1
    stride: 1
    weight_filler {
      type: "msra"
    }
  }
}
layer {
  name: "bn3"
  type: "BN"
  bottom: "conv3"
  top: "scale3"
  param {
    lr_mult: 1.00001
    decay_mult: 0
  }
  param {
    lr_mult: 1.00001
    decay_mult: 0
  }
  bn_param {
    scale_filler {
      type: "constant"
      value: 1
    }
    shift_filler {
      type: "constant"
      value: 0.001
    }
  }
}
layer {
  name: "relu3"
  type: "ReLU"
  bottom: "scale3"
  top: "scale3"
}
layer {
  name: "conv4"
  type: "Convolution"
  bottom: "scale3"
  top: "conv4"
  convolution_param {
    num_output: 64
    bias_term: false
    pad: 1
    kernel_size: 3
    stride: 1
    weight_filler {
      type: "msra"
    }
  }
}
layer {
  name: "bn4"
  type: "BN"
  bottom: "conv4"
  top: "scale4"
  param {
    lr_mult: 1.00001
    decay_mult: 0
  }
  param {
    lr_mult: 1.00001
    decay_mult: 0
  }
  bn_param {
    scale_filler {
      type: "constant"
      value: 1
    }
    shift_filler {
      type: "constant"
      value: 0.001
    }
  }
}
layer {
  name: "relu4"
  type: "ReLU"
  bottom: "scale4"
  top: "scale4"
}
layer {
  name: "conv5"
  type: "Convolution"
  bottom: "pool1"
  top: "conv5"
  convolution_param {
    num_output: 32
    bias_term: false
    pad: 0
    kernel_size: 1
    stride: 1
    weight_filler {
      type: "msra"
    }
  }
}
layer {
  name: "bn5"
  type: "BN"
  bottom: "conv5"
  top: "scale5"
  param {
    lr_mult: 1.00001
    decay_mult: 0
  }
  param {
    lr_mult: 1.00001
    decay_mult: 0
  }
  bn_param {
    scale_filler {
      type: "constant"
      value: 1
    }
    shift_filler {
      type: "constant"
      value: 0.001
    }
  }
}
layer {
  name: "relu5"
  type: "ReLU"
  bottom: "scale5"
  top: "scale5"
}
layer {
  name: "concat1"
  type: "Concat"
  bottom: "scale5"
  bottom: "scale4"
  top: "concat1"
}
layer {
  name: "conv6"
  type: "Convolution"
  bottom: "concat1"
  top: "conv6"
  convolution_param {
    num_output: 96
    bias_term: false
    pad: 1
    kernel_size: 3
    stride: 1
    weight_filler {
      type: "msra"
    }
  }
}
layer {
  name: "bn6"
  type: "BN"
  bottom: "conv6"
  top: "scale6"
  param {
    lr_mult: 1.00001
    decay_mult: 0
  }
  param {
    lr_mult: 1.00001
    decay_mult: 0
  }
  bn_param {
    scale_filler {
      type: "constant"
      value: 1
    }
    shift_filler {
      type: "constant"
      value: 0.001
    }
  }
}
layer {
  name: "relu6"
  type: "ReLU"
  bottom: "scale6"
  top: "scale6"
}
layer {
  name: "conv7"
  type: "Convolution"
  bottom: "scale6"
  top: "conv7"
  convolution_param {
    num_output: 48
    bias_term: false
    kernel_size: 1
    stride: 1
    weight_filler {
      type: "msra"
    }
  }
}
layer {
  name: "bn7"
  type: "BN"
  bottom: "conv7"
  top: "scale7"
  param {
    lr_mult: 1.00001
    decay_mult: 0
  }
  param {
    lr_mult: 1.00001
    decay_mult: 0
  }
  bn_param {
    scale_filler {
      type: "constant"
      value: 1
    }
    shift_filler {
      type: "constant"
      value: 0.001
    }
  }
}
layer {
  name: "relu7"
  type: "ReLU"
  bottom: "scale7"
  top: "scale7"
}
layer {
  name: "conv8"
  type: "Convolution"
  bottom: "scale7"
  top: "conv8"
  convolution_param {
    num_output: 96
    bias_term: false
    pad: 1
    kernel_size: 3
    stride: 1
    weight_filler {
      type: "msra"
    }
  }
}
layer {
  name: "bn8"
  type: "BN"
  bottom: "conv8"
  top: "scale8"
  param {
    lr_mult: 1.00001
    decay_mult: 0
  }
  param {
    lr_mult: 1.00001
    decay_mult: 0
  }
  bn_param {
    scale_filler {
      type: "constant"
      value: 1
    }
    shift_filler {
      type: "constant"
      value: 0.001
    }
  }
}
layer {
  name: "relu8"
  type: "ReLU"
  bottom: "scale8"
  top: "scale8"
}
layer {
  name: "conv9"
  type: "Convolution"
  bottom: "scale6"
  top: "conv9"
  convolution_param {
    num_output: 48
    bias_term: false
    kernel_size: 1
    stride: 1
    weight_filler {
      type: "msra"
    }
  }
}
layer {
  name: "bn9"
  type: "BN"
  bottom: "conv9"
  top: "scale9"
  param {
    lr_mult: 1.00001
    decay_mult: 0
  }
  param {
    lr_mult: 1.00001
    decay_mult: 0
  }
  bn_param {
    scale_filler {
      type: "constant"
      value: 1
    }
    shift_filler {
      type: "constant"
      value: 0.001
    }
  }
}
layer {
  name: "relu9"
  type: "ReLU"
  bottom: "scale9"
  top: "scale9"
}
layer {
  name: "concat2"
  type: "Concat"
  bottom: "scale9"
  bottom: "scale8"
  top: "pool3"
}
layer {
  name: "conv10"
  type: "Convolution"
  bottom: "pool3"
  top: "conv10"
  convolution_param {
    num_output: 128
    bias_term: false
    kernel_size: 3
    stride: 1
    weight_filler {
      type: "msra"
    }
  }
}
layer {
  name: "bn10"
  type: "BN"
  bottom: "conv10"
  top: "scale10"
  param {
    lr_mult: 1.00001
    decay_mult: 0
  }
  param {
    lr_mult: 1.00001
    decay_mult: 0
  }
  bn_param {
    scale_filler {
      type: "constant"
      value: 1
    }
    shift_filler {
      type: "constant"
      value: 0.001
    }
  }
}
layer {
  name: "relu10"
  type: "ReLU"
  bottom: "scale10"
  top: "scale10"
}
layer {
  name: "conv11"
  type: "Convolution"
  bottom: "scale10"
  top: "conv11"
  convolution_param {
    num_output: 256
    kernel_size: 3
    stride: 1
    weight_filler {
      type: "msra"
    }
  }
}
layer {
  name: "conv11_bn"
  type: "BN"
  bottom: "conv11"
  top: "conv11_bn"
  param {
    lr_mult: 1.00001
    decay_mult: 0
  }
  param {
    lr_mult: 1.00001
    decay_mult: 0
  }
  bn_param {
    scale_filler {
      type: "constant"
      value: 1
    }
    shift_filler {
      type: "constant"
      value: 0.001
    }
  }
}
layer {
  name: "pool4"
  type: "Pooling"
  bottom: "conv11_bn"
  top: "pool4"
  pooling_param {
    pool: MAX
    kernel_size: 3
    stride: 3
  }
}
layer {
  name: "fc5"
  type: "InnerProduct"
  bottom: "pool4"
  top: "fc5"
  param {
    lr_mult: 1
    decay_mult: 1
  }
  param {
    lr_mult: 2
    decay_mult: 0
  }
  inner_product_param {
    num_output: 2048
    weight_filler {
      type: "xavier"
    }
    bias_filler {
      type: "constant"
      value: 0
    }
  }
}
layer {
  name: "fc6"
  type: "InnerProduct"
  bottom: "fc5"
  top: "fc6"
  param {
    lr_mult: 1
    decay_mult: 1
  }
  param {
    lr_mult: 2
    decay_mult: 0
  }
  inner_product_param {
    num_output: 62
    weight_filler {
      type: "xavier"
    }
    bias_filler {
      type: "constant"
      value: 0
    }
  }
}
layer {
  name: "acc_test"
  type: "Accuracy"
  bottom: "fc6"
  bottom: "label"
  top: "acc_test"
  include {
    phase: TEST
  }
}
I0805 12:42:55.628743  8884 layer_factory.hpp:77] Creating layer data
I0805 12:42:55.628768  8884 net.cpp:86] Creating Layer data
I0805 12:42:55.628777  8884 net.cpp:382] data -> data
I0805 12:42:55.628785  8884 net.cpp:382] data -> label
I0805 12:42:55.628810  8884 image_data_layer.cpp:68] Opening file 180709_alnum_test.list
I0805 12:42:55.629873  8884 image_data_layer.cpp:90] Shuffling data
I0805 12:42:55.629910  8884 image_data_layer.cpp:100] A total of 1182 images.
I0805 12:42:55.630170  8884 image_data_layer.cpp:127] output data size: 12,1,32,32
I0805 12:42:55.630209  8884 image_data_layer.cpp:135] top[1]->num_axes: 2
I0805 12:42:55.630738  8884 net.cpp:124] Setting up data
I0805 12:42:55.630753  8884 net.cpp:131] Top shape: 12 1 32 32 (12288)
I0805 12:42:55.630759  8884 net.cpp:131] Top shape: 12 1 (12)
I0805 12:42:55.630762  8884 net.cpp:139] Memory required for data: 49200
I0805 12:42:55.630766  8884 layer_factory.hpp:77] Creating layer conv1
I0805 12:42:55.630812  8884 net.cpp:86] Creating Layer conv1
I0805 12:42:55.630820  8884 net.cpp:408] conv1 <- data
I0805 12:42:55.630827  8884 net.cpp:382] conv1 -> conv1
I0805 12:42:55.633077  8884 net.cpp:124] Setting up conv1
I0805 12:42:55.633097  8884 net.cpp:131] Top shape: 12 32 14 14 (75264)
I0805 12:42:55.633102  8884 net.cpp:139] Memory required for data: 350256
I0805 12:42:55.633111  8884 layer_factory.hpp:77] Creating layer bn1
I0805 12:42:55.633123  8884 net.cpp:86] Creating Layer bn1
I0805 12:42:55.633128  8884 net.cpp:408] bn1 <- conv1
I0805 12:42:55.633134  8884 net.cpp:382] bn1 -> scale1
I0805 12:42:55.633519  8884 net.cpp:124] Setting up bn1
I0805 12:42:55.633530  8884 net.cpp:131] Top shape: 12 32 14 14 (75264)
I0805 12:42:55.633534  8884 net.cpp:139] Memory required for data: 651312
I0805 12:42:55.633548  8884 layer_factory.hpp:77] Creating layer relu1
I0805 12:42:55.633553  8884 net.cpp:86] Creating Layer relu1
I0805 12:42:55.633558  8884 net.cpp:408] relu1 <- scale1
I0805 12:42:55.633566  8884 net.cpp:369] relu1 -> scale1 (in-place)
I0805 12:42:55.633914  8884 net.cpp:124] Setting up relu1
I0805 12:42:55.633929  8884 net.cpp:131] Top shape: 12 32 14 14 (75264)
I0805 12:42:55.633932  8884 net.cpp:139] Memory required for data: 952368
I0805 12:42:55.633936  8884 layer_factory.hpp:77] Creating layer conv2
I0805 12:42:55.633949  8884 net.cpp:86] Creating Layer conv2
I0805 12:42:55.633952  8884 net.cpp:408] conv2 <- scale1
I0805 12:42:55.633960  8884 net.cpp:382] conv2 -> conv2
I0805 12:42:55.636713  8884 net.cpp:124] Setting up conv2
I0805 12:42:55.636734  8884 net.cpp:131] Top shape: 12 64 14 14 (150528)
I0805 12:42:55.636739  8884 net.cpp:139] Memory required for data: 1554480
I0805 12:42:55.636759  8884 layer_factory.hpp:77] Creating layer bn2
I0805 12:42:55.636771  8884 net.cpp:86] Creating Layer bn2
I0805 12:42:55.636775  8884 net.cpp:408] bn2 <- conv2
I0805 12:42:55.636785  8884 net.cpp:382] bn2 -> scale2
I0805 12:42:55.637161  8884 net.cpp:124] Setting up bn2
I0805 12:42:55.637171  8884 net.cpp:131] Top shape: 12 64 14 14 (150528)
I0805 12:42:55.637176  8884 net.cpp:139] Memory required for data: 2156592
I0805 12:42:55.637188  8884 layer_factory.hpp:77] Creating layer relu2
I0805 12:42:55.637194  8884 net.cpp:86] Creating Layer relu2
I0805 12:42:55.637199  8884 net.cpp:408] relu2 <- scale2
I0805 12:42:55.637204  8884 net.cpp:369] relu2 -> scale2 (in-place)
I0805 12:42:55.637822  8884 net.cpp:124] Setting up relu2
I0805 12:42:55.637842  8884 net.cpp:131] Top shape: 12 64 14 14 (150528)
I0805 12:42:55.637847  8884 net.cpp:139] Memory required for data: 2758704
I0805 12:42:55.637851  8884 layer_factory.hpp:77] Creating layer pool1
I0805 12:42:55.637861  8884 net.cpp:86] Creating Layer pool1
I0805 12:42:55.637866  8884 net.cpp:408] pool1 <- scale2
I0805 12:42:55.637883  8884 net.cpp:382] pool1 -> pool1
I0805 12:42:55.637955  8884 net.cpp:124] Setting up pool1
I0805 12:42:55.637969  8884 net.cpp:131] Top shape: 12 64 7 7 (37632)
I0805 12:42:55.637974  8884 net.cpp:139] Memory required for data: 2909232
I0805 12:42:55.637977  8884 layer_factory.hpp:77] Creating layer pool1_pool1_0_split
I0805 12:42:55.637989  8884 net.cpp:86] Creating Layer pool1_pool1_0_split
I0805 12:42:55.637995  8884 net.cpp:408] pool1_pool1_0_split <- pool1
I0805 12:42:55.638000  8884 net.cpp:382] pool1_pool1_0_split -> pool1_pool1_0_split_0
I0805 12:42:55.638008  8884 net.cpp:382] pool1_pool1_0_split -> pool1_pool1_0_split_1
I0805 12:42:55.638062  8884 net.cpp:124] Setting up pool1_pool1_0_split
I0805 12:42:55.638072  8884 net.cpp:131] Top shape: 12 64 7 7 (37632)
I0805 12:42:55.638077  8884 net.cpp:131] Top shape: 12 64 7 7 (37632)
I0805 12:42:55.638082  8884 net.cpp:139] Memory required for data: 3210288
I0805 12:42:55.638085  8884 layer_factory.hpp:77] Creating layer conv3
I0805 12:42:55.638095  8884 net.cpp:86] Creating Layer conv3
I0805 12:42:55.638101  8884 net.cpp:408] conv3 <- pool1_pool1_0_split_0
I0805 12:42:55.638110  8884 net.cpp:382] conv3 -> conv3
I0805 12:42:55.639972  8884 net.cpp:124] Setting up conv3
I0805 12:42:55.639991  8884 net.cpp:131] Top shape: 12 32 7 7 (18816)
I0805 12:42:55.639997  8884 net.cpp:139] Memory required for data: 3285552
I0805 12:42:55.640002  8884 layer_factory.hpp:77] Creating layer bn3
I0805 12:42:55.640019  8884 net.cpp:86] Creating Layer bn3
I0805 12:42:55.640024  8884 net.cpp:408] bn3 <- conv3
I0805 12:42:55.640034  8884 net.cpp:382] bn3 -> scale3
I0805 12:42:55.640408  8884 net.cpp:124] Setting up bn3
I0805 12:42:55.640421  8884 net.cpp:131] Top shape: 12 32 7 7 (18816)
I0805 12:42:55.640424  8884 net.cpp:139] Memory required for data: 3360816
I0805 12:42:55.640434  8884 layer_factory.hpp:77] Creating layer relu3
I0805 12:42:55.640439  8884 net.cpp:86] Creating Layer relu3
I0805 12:42:55.640444  8884 net.cpp:408] relu3 <- scale3
I0805 12:42:55.640450  8884 net.cpp:369] relu3 -> scale3 (in-place)
I0805 12:42:55.640997  8884 net.cpp:124] Setting up relu3
I0805 12:42:55.641016  8884 net.cpp:131] Top shape: 12 32 7 7 (18816)
I0805 12:42:55.641021  8884 net.cpp:139] Memory required for data: 3436080
I0805 12:42:55.641024  8884 layer_factory.hpp:77] Creating layer conv4
I0805 12:42:55.641036  8884 net.cpp:86] Creating Layer conv4
I0805 12:42:55.641041  8884 net.cpp:408] conv4 <- scale3
I0805 12:42:55.641049  8884 net.cpp:382] conv4 -> conv4
I0805 12:42:55.643298  8884 net.cpp:124] Setting up conv4
I0805 12:42:55.643317  8884 net.cpp:131] Top shape: 12 64 7 7 (37632)
I0805 12:42:55.643321  8884 net.cpp:139] Memory required for data: 3586608
I0805 12:42:55.643328  8884 layer_factory.hpp:77] Creating layer bn4
I0805 12:42:55.643338  8884 net.cpp:86] Creating Layer bn4
I0805 12:42:55.643342  8884 net.cpp:408] bn4 <- conv4
I0805 12:42:55.643354  8884 net.cpp:382] bn4 -> scale4
I0805 12:42:55.643715  8884 net.cpp:124] Setting up bn4
I0805 12:42:55.643728  8884 net.cpp:131] Top shape: 12 64 7 7 (37632)
I0805 12:42:55.643731  8884 net.cpp:139] Memory required for data: 3737136
I0805 12:42:55.643744  8884 layer_factory.hpp:77] Creating layer relu4
I0805 12:42:55.643752  8884 net.cpp:86] Creating Layer relu4
I0805 12:42:55.643757  8884 net.cpp:408] relu4 <- scale4
I0805 12:42:55.643762  8884 net.cpp:369] relu4 -> scale4 (in-place)
I0805 12:42:55.644256  8884 net.cpp:124] Setting up relu4
I0805 12:42:55.644273  8884 net.cpp:131] Top shape: 12 64 7 7 (37632)
I0805 12:42:55.644279  8884 net.cpp:139] Memory required for data: 3887664
I0805 12:42:55.644282  8884 layer_factory.hpp:77] Creating layer conv5
I0805 12:42:55.644294  8884 net.cpp:86] Creating Layer conv5
I0805 12:42:55.644297  8884 net.cpp:408] conv5 <- pool1_pool1_0_split_1
I0805 12:42:55.644306  8884 net.cpp:382] conv5 -> conv5
I0805 12:42:55.645965  8884 net.cpp:124] Setting up conv5
I0805 12:42:55.645984  8884 net.cpp:131] Top shape: 12 32 7 7 (18816)
I0805 12:42:55.645989  8884 net.cpp:139] Memory required for data: 3962928
I0805 12:42:55.645997  8884 layer_factory.hpp:77] Creating layer bn5
I0805 12:42:55.646013  8884 net.cpp:86] Creating Layer bn5
I0805 12:42:55.646018  8884 net.cpp:408] bn5 <- conv5
I0805 12:42:55.646023  8884 net.cpp:382] bn5 -> scale5
I0805 12:42:55.646375  8884 net.cpp:124] Setting up bn5
I0805 12:42:55.646385  8884 net.cpp:131] Top shape: 12 32 7 7 (18816)
I0805 12:42:55.646389  8884 net.cpp:139] Memory required for data: 4038192
I0805 12:42:55.646399  8884 layer_factory.hpp:77] Creating layer relu5
I0805 12:42:55.646404  8884 net.cpp:86] Creating Layer relu5
I0805 12:42:55.646407  8884 net.cpp:408] relu5 <- scale5
I0805 12:42:55.646414  8884 net.cpp:369] relu5 -> scale5 (in-place)
I0805 12:42:55.646925  8884 net.cpp:124] Setting up relu5
I0805 12:42:55.646944  8884 net.cpp:131] Top shape: 12 32 7 7 (18816)
I0805 12:42:55.646947  8884 net.cpp:139] Memory required for data: 4113456
I0805 12:42:55.646951  8884 layer_factory.hpp:77] Creating layer concat1
I0805 12:42:55.646961  8884 net.cpp:86] Creating Layer concat1
I0805 12:42:55.646966  8884 net.cpp:408] concat1 <- scale5
I0805 12:42:55.646971  8884 net.cpp:408] concat1 <- scale4
I0805 12:42:55.646976  8884 net.cpp:382] concat1 -> concat1
I0805 12:42:55.647020  8884 net.cpp:124] Setting up concat1
I0805 12:42:55.647030  8884 net.cpp:131] Top shape: 12 96 7 7 (56448)
I0805 12:42:55.647034  8884 net.cpp:139] Memory required for data: 4339248
I0805 12:42:55.647037  8884 layer_factory.hpp:77] Creating layer conv6
I0805 12:42:55.647047  8884 net.cpp:86] Creating Layer conv6
I0805 12:42:55.647053  8884 net.cpp:408] conv6 <- concat1
I0805 12:42:55.647059  8884 net.cpp:382] conv6 -> conv6
I0805 12:42:55.651787  8884 net.cpp:124] Setting up conv6
I0805 12:42:55.651806  8884 net.cpp:131] Top shape: 12 96 7 7 (56448)
I0805 12:42:55.651811  8884 net.cpp:139] Memory required for data: 4565040
I0805 12:42:55.651818  8884 layer_factory.hpp:77] Creating layer bn6
I0805 12:42:55.651827  8884 net.cpp:86] Creating Layer bn6
I0805 12:42:55.651832  8884 net.cpp:408] bn6 <- conv6
I0805 12:42:55.651841  8884 net.cpp:382] bn6 -> scale6
I0805 12:42:55.652197  8884 net.cpp:124] Setting up bn6
I0805 12:42:55.652209  8884 net.cpp:131] Top shape: 12 96 7 7 (56448)
I0805 12:42:55.652212  8884 net.cpp:139] Memory required for data: 4790832
I0805 12:42:55.652221  8884 layer_factory.hpp:77] Creating layer relu6
I0805 12:42:55.652227  8884 net.cpp:86] Creating Layer relu6
I0805 12:42:55.652231  8884 net.cpp:408] relu6 <- scale6
I0805 12:42:55.652236  8884 net.cpp:369] relu6 -> scale6 (in-place)
I0805 12:42:55.652534  8884 net.cpp:124] Setting up relu6
I0805 12:42:55.652547  8884 net.cpp:131] Top shape: 12 96 7 7 (56448)
I0805 12:42:55.652559  8884 net.cpp:139] Memory required for data: 5016624
I0805 12:42:55.652562  8884 layer_factory.hpp:77] Creating layer scale6_relu6_0_split
I0805 12:42:55.652570  8884 net.cpp:86] Creating Layer scale6_relu6_0_split
I0805 12:42:55.652586  8884 net.cpp:408] scale6_relu6_0_split <- scale6
I0805 12:42:55.652595  8884 net.cpp:382] scale6_relu6_0_split -> scale6_relu6_0_split_0
I0805 12:42:55.652603  8884 net.cpp:382] scale6_relu6_0_split -> scale6_relu6_0_split_1
I0805 12:42:55.652665  8884 net.cpp:124] Setting up scale6_relu6_0_split
I0805 12:42:55.652678  8884 net.cpp:131] Top shape: 12 96 7 7 (56448)
I0805 12:42:55.652683  8884 net.cpp:131] Top shape: 12 96 7 7 (56448)
I0805 12:42:55.652686  8884 net.cpp:139] Memory required for data: 5468208
I0805 12:42:55.652690  8884 layer_factory.hpp:77] Creating layer conv7
I0805 12:42:55.652698  8884 net.cpp:86] Creating Layer conv7
I0805 12:42:55.652703  8884 net.cpp:408] conv7 <- scale6_relu6_0_split_0
I0805 12:42:55.652710  8884 net.cpp:382] conv7 -> conv7
I0805 12:42:55.654481  8884 net.cpp:124] Setting up conv7
I0805 12:42:55.654502  8884 net.cpp:131] Top shape: 12 48 7 7 (28224)
I0805 12:42:55.654507  8884 net.cpp:139] Memory required for data: 5581104
I0805 12:42:55.654515  8884 layer_factory.hpp:77] Creating layer bn7
I0805 12:42:55.654525  8884 net.cpp:86] Creating Layer bn7
I0805 12:42:55.654530  8884 net.cpp:408] bn7 <- conv7
I0805 12:42:55.654536  8884 net.cpp:382] bn7 -> scale7
I0805 12:42:55.654889  8884 net.cpp:124] Setting up bn7
I0805 12:42:55.654901  8884 net.cpp:131] Top shape: 12 48 7 7 (28224)
I0805 12:42:55.654904  8884 net.cpp:139] Memory required for data: 5694000
I0805 12:42:55.654917  8884 layer_factory.hpp:77] Creating layer relu7
I0805 12:42:55.654925  8884 net.cpp:86] Creating Layer relu7
I0805 12:42:55.654929  8884 net.cpp:408] relu7 <- scale7
I0805 12:42:55.654935  8884 net.cpp:369] relu7 -> scale7 (in-place)
I0805 12:42:55.655441  8884 net.cpp:124] Setting up relu7
I0805 12:42:55.655458  8884 net.cpp:131] Top shape: 12 48 7 7 (28224)
I0805 12:42:55.655463  8884 net.cpp:139] Memory required for data: 5806896
I0805 12:42:55.655467  8884 layer_factory.hpp:77] Creating layer conv8
I0805 12:42:55.655478  8884 net.cpp:86] Creating Layer conv8
I0805 12:42:55.655483  8884 net.cpp:408] conv8 <- scale7
I0805 12:42:55.655491  8884 net.cpp:382] conv8 -> conv8
I0805 12:42:55.658768  8884 net.cpp:124] Setting up conv8
I0805 12:42:55.658789  8884 net.cpp:131] Top shape: 12 96 7 7 (56448)
I0805 12:42:55.658794  8884 net.cpp:139] Memory required for data: 6032688
I0805 12:42:55.658802  8884 layer_factory.hpp:77] Creating layer bn8
I0805 12:42:55.658809  8884 net.cpp:86] Creating Layer bn8
I0805 12:42:55.658814  8884 net.cpp:408] bn8 <- conv8
I0805 12:42:55.658823  8884 net.cpp:382] bn8 -> scale8
I0805 12:42:55.659186  8884 net.cpp:124] Setting up bn8
I0805 12:42:55.659198  8884 net.cpp:131] Top shape: 12 96 7 7 (56448)
I0805 12:42:55.659201  8884 net.cpp:139] Memory required for data: 6258480
I0805 12:42:55.659209  8884 layer_factory.hpp:77] Creating layer relu8
I0805 12:42:55.659215  8884 net.cpp:86] Creating Layer relu8
I0805 12:42:55.659219  8884 net.cpp:408] relu8 <- scale8
I0805 12:42:55.659226  8884 net.cpp:369] relu8 -> scale8 (in-place)
I0805 12:42:55.659526  8884 net.cpp:124] Setting up relu8
I0805 12:42:55.659540  8884 net.cpp:131] Top shape: 12 96 7 7 (56448)
I0805 12:42:55.659544  8884 net.cpp:139] Memory required for data: 6484272
I0805 12:42:55.659548  8884 layer_factory.hpp:77] Creating layer conv9
I0805 12:42:55.659559  8884 net.cpp:86] Creating Layer conv9
I0805 12:42:55.659564  8884 net.cpp:408] conv9 <- scale6_relu6_0_split_1
I0805 12:42:55.659572  8884 net.cpp:382] conv9 -> conv9
I0805 12:42:55.661345  8884 net.cpp:124] Setting up conv9
I0805 12:42:55.661363  8884 net.cpp:131] Top shape: 12 48 7 7 (28224)
I0805 12:42:55.661367  8884 net.cpp:139] Memory required for data: 6597168
I0805 12:42:55.661375  8884 layer_factory.hpp:77] Creating layer bn9
I0805 12:42:55.661384  8884 net.cpp:86] Creating Layer bn9
I0805 12:42:55.661389  8884 net.cpp:408] bn9 <- conv9
I0805 12:42:55.661396  8884 net.cpp:382] bn9 -> scale9
I0805 12:42:55.661761  8884 net.cpp:124] Setting up bn9
I0805 12:42:55.661772  8884 net.cpp:131] Top shape: 12 48 7 7 (28224)
I0805 12:42:55.661777  8884 net.cpp:139] Memory required for data: 6710064
I0805 12:42:55.661798  8884 layer_factory.hpp:77] Creating layer relu9
I0805 12:42:55.661808  8884 net.cpp:86] Creating Layer relu9
I0805 12:42:55.661811  8884 net.cpp:408] relu9 <- scale9
I0805 12:42:55.661816  8884 net.cpp:369] relu9 -> scale9 (in-place)
I0805 12:42:55.662325  8884 net.cpp:124] Setting up relu9
I0805 12:42:55.662343  8884 net.cpp:131] Top shape: 12 48 7 7 (28224)
I0805 12:42:55.662348  8884 net.cpp:139] Memory required for data: 6822960
I0805 12:42:55.662351  8884 layer_factory.hpp:77] Creating layer concat2
I0805 12:42:55.662361  8884 net.cpp:86] Creating Layer concat2
I0805 12:42:55.662369  8884 net.cpp:408] concat2 <- scale9
I0805 12:42:55.662375  8884 net.cpp:408] concat2 <- scale8
I0805 12:42:55.662381  8884 net.cpp:382] concat2 -> pool3
I0805 12:42:55.662423  8884 net.cpp:124] Setting up concat2
I0805 12:42:55.662432  8884 net.cpp:131] Top shape: 12 144 7 7 (84672)
I0805 12:42:55.662436  8884 net.cpp:139] Memory required for data: 7161648
I0805 12:42:55.662441  8884 layer_factory.hpp:77] Creating layer conv10
I0805 12:42:55.662453  8884 net.cpp:86] Creating Layer conv10
I0805 12:42:55.662459  8884 net.cpp:408] conv10 <- pool3
I0805 12:42:55.662466  8884 net.cpp:382] conv10 -> conv10
I0805 12:42:55.670836  8884 net.cpp:124] Setting up conv10
I0805 12:42:55.670857  8884 net.cpp:131] Top shape: 12 128 5 5 (38400)
I0805 12:42:55.670862  8884 net.cpp:139] Memory required for data: 7315248
I0805 12:42:55.670869  8884 layer_factory.hpp:77] Creating layer bn10
I0805 12:42:55.670879  8884 net.cpp:86] Creating Layer bn10
I0805 12:42:55.670884  8884 net.cpp:408] bn10 <- conv10
I0805 12:42:55.670892  8884 net.cpp:382] bn10 -> scale10
I0805 12:42:55.671238  8884 net.cpp:124] Setting up bn10
I0805 12:42:55.671249  8884 net.cpp:131] Top shape: 12 128 5 5 (38400)
I0805 12:42:55.671253  8884 net.cpp:139] Memory required for data: 7468848
I0805 12:42:55.671262  8884 layer_factory.hpp:77] Creating layer relu10
I0805 12:42:55.671268  8884 net.cpp:86] Creating Layer relu10
I0805 12:42:55.671272  8884 net.cpp:408] relu10 <- scale10
I0805 12:42:55.671279  8884 net.cpp:369] relu10 -> scale10 (in-place)
I0805 12:42:55.671797  8884 net.cpp:124] Setting up relu10
I0805 12:42:55.671813  8884 net.cpp:131] Top shape: 12 128 5 5 (38400)
I0805 12:42:55.671818  8884 net.cpp:139] Memory required for data: 7622448
I0805 12:42:55.671823  8884 layer_factory.hpp:77] Creating layer conv11
I0805 12:42:55.671836  8884 net.cpp:86] Creating Layer conv11
I0805 12:42:55.671841  8884 net.cpp:408] conv11 <- scale10
I0805 12:42:55.671850  8884 net.cpp:382] conv11 -> conv11
I0805 12:42:55.684890  8884 net.cpp:124] Setting up conv11
I0805 12:42:55.684911  8884 net.cpp:131] Top shape: 12 256 3 3 (27648)
I0805 12:42:55.684916  8884 net.cpp:139] Memory required for data: 7733040
I0805 12:42:55.684924  8884 layer_factory.hpp:77] Creating layer conv11_bn
I0805 12:42:55.684936  8884 net.cpp:86] Creating Layer conv11_bn
I0805 12:42:55.684940  8884 net.cpp:408] conv11_bn <- conv11
I0805 12:42:55.684948  8884 net.cpp:382] conv11_bn -> conv11_bn
I0805 12:42:55.685300  8884 net.cpp:124] Setting up conv11_bn
I0805 12:42:55.685312  8884 net.cpp:131] Top shape: 12 256 3 3 (27648)
I0805 12:42:55.685315  8884 net.cpp:139] Memory required for data: 7843632
I0805 12:42:55.685324  8884 layer_factory.hpp:77] Creating layer pool4
I0805 12:42:55.685333  8884 net.cpp:86] Creating Layer pool4
I0805 12:42:55.685338  8884 net.cpp:408] pool4 <- conv11_bn
I0805 12:42:55.685343  8884 net.cpp:382] pool4 -> pool4
I0805 12:42:55.685408  8884 net.cpp:124] Setting up pool4
I0805 12:42:55.685418  8884 net.cpp:131] Top shape: 12 256 1 1 (3072)
I0805 12:42:55.685422  8884 net.cpp:139] Memory required for data: 7855920
I0805 12:42:55.685426  8884 layer_factory.hpp:77] Creating layer fc5
I0805 12:42:55.685436  8884 net.cpp:86] Creating Layer fc5
I0805 12:42:55.685441  8884 net.cpp:408] fc5 <- pool4
I0805 12:42:55.685447  8884 net.cpp:382] fc5 -> fc5
I0805 12:42:55.690866  8884 net.cpp:124] Setting up fc5
I0805 12:42:55.690886  8884 net.cpp:131] Top shape: 12 2048 (24576)
I0805 12:42:55.690902  8884 net.cpp:139] Memory required for data: 7954224
I0805 12:42:55.690910  8884 layer_factory.hpp:77] Creating layer fc6
I0805 12:42:55.690919  8884 net.cpp:86] Creating Layer fc6
I0805 12:42:55.690923  8884 net.cpp:408] fc6 <- fc5
I0805 12:42:55.690932  8884 net.cpp:382] fc6 -> fc6
I0805 12:42:55.692809  8884 net.cpp:124] Setting up fc6
I0805 12:42:55.692828  8884 net.cpp:131] Top shape: 12 62 (744)
I0805 12:42:55.692832  8884 net.cpp:139] Memory required for data: 7957200
I0805 12:42:55.692839  8884 layer_factory.hpp:77] Creating layer acc_test
I0805 12:42:55.692849  8884 net.cpp:86] Creating Layer acc_test
I0805 12:42:55.692854  8884 net.cpp:408] acc_test <- fc6
I0805 12:42:55.692859  8884 net.cpp:408] acc_test <- label
I0805 12:42:55.692865  8884 net.cpp:382] acc_test -> acc_test
…
